Data/my_model.pth.tar (torch_old, 179863 bytes, 76 tensors)

layer_1.weight f4 [64, 12]
000000 3b 1b 82 bc 40 a2 02 bd 3c bc db be 52 e7 5f be
       -0.015882125 -0.031893015 -0.4291705 -0.21865585
000010 c4 21 72 3e 6e 4b b8 3d da 0e 2a 3e 4f 39 6c 3d
       0.23645693 0.08998762 0.16607228 0.05767184
000020 bb f5 80 3d e5 cf be bd 27 bd 55 3e 98 a6 bf be
       0.06296869 -0.093169965 0.20872937 -0.37431788
000030 6a e2 be 3e 55 32 d1 bd 48 9e 07 3e 5e 93 8c be
       0.37282115 -0.10214678 0.13243973 -0.27456182
000040 7d ba 41 3e 5a 50 52 3e a9 32 c4 3c cb f3 68 bc
       0.18918796 0.20538464 0.023949938 -0.014218281
000050 d8 d2 32 be 83 9a 84 3e d3 b8 ee 3c f7 38 84 be
       -0.17463243 0.25899133 0.029140865 -0.2582471
000060 a5 af 98 bd ca ba cb bd 20 65 a7 3e 51 51 9a 3d
       -0.074553765 -0.099477366 0.3269434 0.07535041
000070 7b 40 18 ba 78 56 99 3c 3c 0d 39 be ec b6 76 3e
       -0.0005807948 0.01871799 -0.18071455 0.24093217
000080 ef 54 de 3d 0f d4 d0 3e fe 1e 84 3d e7 b7 0a 3d
       0.108560435 0.40786788 0.06451224 0.03386679
000090 29 1c 96 bd d2 b1 e5 bc 96 7b 38 bd 84 4f 54 be
       -0.0732959 -0.028038893 -0.045039736 -0.20733458
0000a0 c9 cd 2c 3e 54 16 c3 3b 9a 01 ab bd 24 b8 d8 3d
       0.16875376 0.0059535895 -0.08349915 0.10581997
0000b0 90 dd af 3d ac 20 86 3e 2f d4 9c 3e bd d3 58 be
       0.085871816 0.26196802 0.30630633 -0.21174522
0000c0 35 77 0f be 89 a4 0d bd ad a4 be 3d 18 21 e2 3d
       -0.14010318 -0.03458074 0.09308753 0.110414684
0000d0 8f a6 60 bd 22 e0 28 3e ea a4 94 bd de c5 08 3e
       -0.054846343 0.1649175 -0.07258017 0.1335673
0000e0 dd 63 97 3e 62 fe 49 bd c8 09 57 be f1 f4 e1 3c
       0.29568377 -0.049314864 -0.20999825 0.027582617
0000f0 f1 90 6f 3e 8f 6f 8d 3e 53 02 26 3e 1f 2a 33 be
       0.23395135 0.27624175 0.16211824 -0.17496537
000100 7d 12 de 3e d0 37 89 3e dd fe 25 bc 53 a1 a8 bd
       0.4337348 0.26800394 -0.010131565 -0.08233895
000110 30 ed 48 be da a5 68 3d 67 e6 34 3e ff f9 04 3d
       -0.1962173 0.056798793 0.17666017 0.032464977
000120 80 c1 ba 3c dd 1f 56 be f2 57 69 bd 89 45 40 be
       0.022797346 -0.20910592 -0.056968637 -0.18776526
000130 86 e6 7d be 31 77 59 be 36 96 fd 3c b3 e2 98 3e
       -0.24794969 -0.21236874 0.030955415 0.29860458
000140 7f fc 0b 3e 89 4f 90 bc 87 18 af 3d 09 a2 b3 3e
       0.13670538 -0.01761605 0.085496 0.3508456
000150 9a 28 68 3d 02 73 f0 3c 35 d2 d8 3d bd 32 02 be
       0.056679346 0.029351715 0.10586969 -0.12714668
000160 56 4f 60 3e 30 c3 f8 3d b9 37 2a bd c5 c0 07 3e
       0.21905264 0.12146604 -0.041557048 0.1325713
000170 e3 33 a5 3b 8e 12 46 3e 67 94 43 3e d1 17 f3 bd
       0.005041586 0.19343016 0.1909958 -0.11869777
000180 5b 11 30 be 4e 0d b8 3d 38 34 22 be 0a 5b 97 bd
       -0.1719412 0.08986913 -0.15840232 -0.07390411
000190 aa 96 54 3e eb 56 f5 3b 8b 8a b1 be 89 7f 49 3e
       0.20760599 0.007487168 -0.34676012 0.19677557
0001a0 52 db 51 3d 2e fc 8d bd 58 c9 bb 3d 1a 4e 2e be
       0.05123455 -0.06932865 0.09169263 -0.17021981
0001b0 5e 3b 6c 3c 62 d6 b1 3d 33 e2 25 3e 67 80 32 be
       0.014418451 0.086834684 0.1619957 -0.17431794
0001c0 bc ff ce 3d 0e b1 37 be 95 d6 c6 be 07 65 a3 3e
       0.10107371 -0.17938635 -0.38835588 0.31913015
0001d0 e1 61 13 3e 6e da 09 3c f2 19 e1 bd 79 f2 9d be
       0.14392807 0.008413894 -0.10991277 -0.30849054
0001e0 c0 f4 7f be 81 44 9c 3e 46 8a 2f be 90 13 75 be
       -0.24995708 0.30521014 -0.17142591 -0.23933244
0001f0 24 d1 e1 bd 34 d8 c0 3d 7a b4 ea 3c 12 20 c3 3d
       -0.110262185 0.094162375 0.028650511 0.09527601
000200 49 a0 7a 3d f6 22 9c 3d 34 2f 2c bd 77 67 52 be
       0.061188016 0.07623856 -0.042037204 -0.20547281
000210 0d 71 bf bd f9 62 41 be 2c f9 cd bc a9 ee 4a be
       -0.093477346 -0.18885411 -0.025143228 -0.19817604
000220 0f 4f c9 bb c8 a1 09 bd ea 47 9e bd 42 8c aa 3e
       -0.0061434577 -0.033601552 -0.0772856 0.33310133
000230 52 c0 67 3e b0 ea 67 3e 73 1a 90 3e a8 56 e4 bb
       0.22631958 0.2264812 0.2814518 -0.006968338
000240 aa 12 59 be ce 8c ca 3d df 99 b0 3d 1d c6 0b 3d
       -0.21198526 0.098901376 0.086230986 0.034124482
000250 47 70 b2 3d 0e 6d 14 3e 2e 55 71 be 31 fc 80 3d
       0.087128215 0.14494726 -0.2356765 0.06298102
000260 c8 5d 6d bc 8b 40 18 3d 49 e5 35 3e ad b2 bb be
       -0.014487691 0.037170928 0.17763247 -0.36659756
000270 fe 37 19 3e 04 8b c6 bd a0 17 2c be a7 44 a3 3d
       0.14962766 -0.09694484 -0.16805887 0.07972079
000280 eb cb 7d be fd 56 b1 bd 7d 63 eb bd f1 15 d2 be
       -0.2478482 -0.0865917 -0.11493585 -0.41032365
000290 c5 f3 e2 3d a9 17 37 be 63 14 ad be 21 52 e9 3c
       0.110816516 -0.1788012 -0.33804616 0.028481545
0002a0 27 ae a9 bd ce d4 3f be 12 73 bb 3d fd 0c c0 bd
       -0.0828517 -0.18733522 0.09152807 -0.09377477
0002b0 ad 50 5b 3e 17 f0 82 3e 01 dc ff 3d b0 1f fe 3d
       0.21417494 0.255738 0.12493134 0.12408388
0002c0 f7 27 61 3e 44 ad a0 3e 9f 42 b6 3e f0 8a 8c 3c
       0.21987902 0.3138219 0.35597703 0.017156094
0002d0 f1 3f 07 be c4 cf 10 be 27 63 7f be 57 0b e0 bd
       -0.13207985 -0.14141756 -0.24940167 -0.10939663
0002e0 1e df 0a be ee 8b a4 3c 2b 8b c2 3d 8e 88 43 be
       -0.13561675 0.020086255 0.094992004 -0.1909506
0002f0 00 01 a1 3d 80 fd fa 3d ec bf a5 3d a8 18 ab bc
       0.07861519 0.122553825 0.08093247 -0.02088578
000300 86 8f 1f be 01 cf 69 3e 2c 02 0b be 99 42 90 be
       -0.15582094 0.22832872 -0.13575047 -0.2817581
000310 b1 a5 ec bd 46 fb b9 3d 0a de 71 bd c0 c5 06 3d
       -0.11555041 0.0908113 -0.059049644 0.032903433
000320 3b 90 04 be 80 0c 6b be b9 3f a4 3e 5c d6 a6 3e
       -0.12945645 -0.22953987 0.32079867 0.32585418
000330 ec f2 99 3e 52 bd b4 3e 79 86 91 3e c7 81 55 bd
       0.30068147 0.3530069 0.28422907 -0.05212572
000340 db 7a 2b 3d 3c 49 25 be a7 af d1 3d 1c 62 06 bd
       0.04186521 -0.16141218 0.10238581 -0.03280841
000350 47 64 5e be 52 1d df bd 63 4f 44 bd 42 e7 c9 3d
       -0.2171794 -0.10894264 -0.04792727 0.09858562
000360 27 13 95 be 3b 39 cb bc 1b 70 10 be fa 23 d4 3d
       -0.29116175 -0.024807563 -0.14105265 0.103584245
000370 51 d2 42 be bc 87 54 be 99 f0 91 bc d6 9a e5 bd
       -0.19025542 -0.20754904 -0.017814921 -0.11211173
000380 7f 26 5e 3d 89 3b 12 bd 9b 2e b0 bd 18 1f 01 3e
       0.05423593 -0.03570131 -0.08602639 0.12609518
000390 d2 03 2c be 88 40 91 bd b9 b9 34 be 15 e5 5a bd
       -0.16798332 -0.070923865 -0.17648973 -0.053441126
0003a0 36 d9 b4 be 5e 70 15 be 65 cb 3b 3c 38 62 8d 3d
       -0.3532197 -0.14593646 0.011462067 0.06903499
0003b0 05 89 88 3d 56 fd 79 be 4a 7b 0f 3d 15 cb b0 3e
       0.066667594 -0.24413046 0.035029687 0.3452994
0003c0 d6 66 a6 3e 7a 65 c8 bd 00 a2 a6 bc a0 e7 2a 3d
       0.32500333 -0.0978498 -0.02034092 0.0417248
0003d0 98 b7 56 3e c3 f5 22 be 55 af 87 3e bc ab 5f bd
       0.20968473 -0.15914063 0.26500955 -0.054607138
0003e0 29 78 81 3d 54 29 a6 be 13 8e b9 3c 2a ff 3f be
       0.06321747 -0.32453406 0.022650754 -0.18749681
0003f0 f6 9d 7b be ef 55 c3 be 13 e0 85 be d2 0c 0c 3e
       -0.24571976 -0.381515 -0.26147518 0.13676766

layer_1.bias f4 [64]
000000 e4 67 61 3b 56 73 af bc ef d7 da bd 99 37 d6 3e
       0.00343942 -0.021417301 -0.10685717 0.41839293
000010 e6 9b 4b 3f 41 cd 31 3e df 10 10 be 37 24 33 3e
       0.7953476 0.17363454 -0.14068936 0.17494284
000020 cf 81 d5 3e 8c e0 c4 3c 9e a8 55 3e 7b 3c 43 bd
       0.417006 0.024032854 0.20865104 -0.0476651
000030 2d fb 4a 3e a0 01 f6 3d 35 63 a5 3e 25 38 3f 3f
       0.19822378 0.12012029 0.3230225 0.74695045
000040 65 00 09 3e 0c c3 98 bd 7c e9 0e 3f 97 9c bc 3d
       0.13379057 -0.07459077 0.5582502 0.09209555
000050 bd c5 84 3e 70 19 aa bd dd c7 18 3f 13 9c 5d 3d
       0.25932112 -0.08305633 0.5967997 0.054103922
000060 7c 18 86 3e f9 39 6c 3e 57 ed 11 bd 0b f3 0a 3f
       0.26190555 0.2306899 -0.035626736 0.54277104
000070 58 84 0d 3e e0 61 76 3e c1 0d fc bd 7c 72 cb 3e
       0.13820016 0.24060774 -0.12307311 0.39735782
000080 57 16 88 3e e9 ea 16 bd 1b a8 03 3f af 8e b5 3e
       0.26579544 -0.03684512 0.51428384 0.3546042
000090 ea c0 70 3e 2d 4d 34 be 79 85 92 3e 56 a6 b0 3e
       0.23511091 -0.17607565 0.28617457 0.34501904
0000a0 c2 e6 ee 3e f7 b4 cb 3e 0b 0c 8d bc 7d 1b a2 bd
       0.4666043 0.39786503 -0.017217657 -0.07915399
0000b0 ed 75 5a be 7a f6 b0 3d 7d 3a 9e 3e 88 16 bf 3e
       -0.21334048 0.08640762 0.30903998 0.37321877
0000c0 e1 2c 85 3e 12 17 a2 3d 49 a8 d4 3d b8 36 3e 3e
       0.26010802 0.079145566 0.1038366 0.18575561
0000d0 db df 96 bd bb 9d a8 3e e7 f9 cb 3d 48 11 90 be
       -0.07366916 0.3293284 0.099597745 -0.28138185
0000e0 b5 cd 22 3f a6 7b 15 be 9a d1 df 3e 4d 10 22 be
       0.63595134 -0.1459795 0.437146 -0.15826531
0000f0 c4 0f 90 bd ee 20 ba bd a6 25 8d 3d fc de 85 bc
       -0.07034257 -0.09088312 0.068919465 -0.016341679

layer_2.weight f4 [64, 64]
000000 a7 b4 53 bb 66 01 f2 39 25 0f ea bb d3 4c 2f 3c
       -0.0032303722 0.0004615888 -0.0071429187 0.010699469
000010 53 b9 1e 3d e5 ab 00 bc de c5 1e bd 06 72 57 3d
       0.038750958 -0.007853483 -0.03876292 0.052598976
000020 a8 35 90 bb fe e2 e6 bc 14 62 97 3c 49 6a da bb
       -0.0044009276 -0.02818441 0.018479384 -0.006665502
000030 f6 0a 2a 3d 4b ab 84 3c 88 16 4c bd 90 3a 81 bb
       0.04151436 0.01619496 -0.049826175 -0.003943749
000040 e2 f9 02 3d 50 7a c7 bd 7f fe ef bc 53 c8 9f 3c
       0.031976588 -0.09740126 -0.029296158 0.019504702
000050 71 49 82 bc b4 c3 2c 3e 87 87 97 39 06 9b f3 3b
       -0.01590416 0.1687153 0.0002890194 0.0074342517
000060 c4 42 32 bd 4e 05 3b bb dc 8e 1b bd 44 b9 ed 3c
       -0.043520704 -0.0028537097 -0.03797804 0.029019006
000070 2d b6 51 3b 8e cd 9e bc dc bf 88 3d 51 48 e0 bc
       0.0031999454 -0.019385125 0.06677219 -0.027378233
000080 45 66 1a 3d 05 c4 47 bc 6b b9 26 bc 3f 79 89 3a
       0.037695188 -0.012192731 -0.010176043 0.0010488405
000090 b7 4d 5f 3d 2a 77 8b bb 3c 3d 17 3d 25 41 f7 bc
       0.054517474 -0.004256149 0.036923632 -0.03018243
0000a0 6a a0 f6 3c 1e 57 06 3c bf 63 f9 b9 91 ec 09 3f
       0.030105788 0.008199481 -0.00047567298 0.53876597
0000b0 1c 09 fb 3b 69 b1 d3 3c f6 97 fc bb 82 43 c7 bd
       0.007660998 0.025841432 -0.007708545 -0.09729673
0000c0 a7 9f 1a 3b da a3 19 ba 8d 0f 1e 3d 38 0c 99 bd
       0.0023593695 -0.00058609026 0.03858905 -0.07473034
0000d0 77 2f 34 3e 22 65 35 bd 1d 3a 7f 3c 9f 87 32 bb
       0.17596231 -0.0442859 0.01557782 -0.002724148
0000e0 60 11 26 3d 39 c2 54 ba 65 43 a1 bc 55 d3 6b 3c
       0.040543914 -0.00081160996 -0.019685457 0.014393647
0000f0 74 04 40 bc 7c c2 07 3f cf 9c 08 3e 04 00 ee b9
       -0.011719812 0.53031135 0.13341068 -0.0004539491
000100 5c 45 da 3d d1 f1 a0 3d db 05 35 be f1 26 61 3d
       0.106577605 0.07858623 -0.17678015 0.054968778
000110 28 97 c9 bd a6 67 42 3d d8 fa 0a be c9 96 6a bd
       -0.09843284 0.047462128 -0.13572252 -0.057272706
000120 4a 82 0e 3e 4d 0a ef 3d d7 e2 b7 3c 26 c2 2c 3d
       0.13916889 0.116718866 0.022447033 0.042177342
000130 af 43 81 3d 60 a5 0d be 64 6e c6 3c 24 46 65 bb
       0.06311738 -0.13832617 0.02422256 -0.0034984434
000140 d7 8d a3 3d 40 f6 f1 3b bd 99 a0 3d 67 2c 97 3c
       0.07986038 0.0073840916 0.07841823 0.01845379
000150 92 7b 39 3d 59 71 59 3d 5d 65 5e 3d b7 c8 c5 bd
       0.04528386 0.053086612 0.054295886 -0.09657424
000160 bc 55 31 be 3a 93 63 bd f4 cc 86 bd ed ea c7 bd
       -0.17317861 -0.055560328 -0.065820605 -0.097616054
000170 32 45 47 be da 40 0f 3e cb a3 c7 3d 5f 96 12 bc
       -0.1945999 0.13989583 0.09748038 -0.008946984
000180 6b d4 a9 3d 88 b5 74 bd 23 ab 3a bc d9 73 2b bd
       0.08292469 -0.059743434 -0.011393341 -0.041858528
000190 81 d4 67 3d d4 38 b3 bd d9 93 0d 3e ae b6 32 bd
       0.056599144 -0.087510735 0.1382593 -0.04363125
0001a0 03 23 52 bd 81 86 eb bc 2b cc 96 bd 80 81 67 bc
       -0.05130292 -0.02875066 -0.07363161 -0.014129996
0001b0 83 48 63 3d c0 3f a3 3d f6 58 87 3e 6b 52 05 bd
       0.055489074 0.07971144 0.2643506 -0.032549303
0001c0 87 8b 7f bb 7d b3 3d 3e db 8d 39 3d 07 f2 cc bd
       -0.0038993077 0.185255 0.0453013 -0.100071006
0001d0 69 ff 17 bd 34 b8 85 bd d8 48 60 3b 04 c4 e2 bc
       -0.037108812 -0.065292746 0.0034223106 -0.027681358
0001e0 65 2a 27 3d 55 97 aa 3d cf 60 33 3e 70 d6 aa 3e
       0.040811915 0.083296455 0.17517398 0.33366728
0001f0 a4 fb 81 bd 78 e6 c1 bc 3f 41 4c 3d 80 c6 fd bd
       -0.06346825 -0.023669466 0.04986691 -0.123913765
000200 1b 94 7b bc 18 92 c6 bc ff 65 7a 3e 22 07 a9 bd
       -0.015355135 -0.024239585 0.24452971 -0.082533136
000210 b1 ec 9b 3d 6d 53 26 3e b6 0d 63 3d 87 0e a8 3d
       0.07613505 0.16242762 0.055432998 0.08205896
000220 d8 0c 2f bc 6f 9e d3 3d 1e fa 01 3c 94 bd 12 3d
       -0.0106842145 0.10332953 0.007933168 0.035825327
000230 79 8b 45 3d bb ee 0c 3e a3 ed 05 3e 2a dd b8 3b
       0.048228715 0.13762943 0.13078932 0.005641599
000240 0c df 5e bd e3 9d 23 bc 47 19 de bc f3 74 70 3d
       -0.054411933 -0.009986374 -0.027111663 0.05870528
000250 12 e3 82 bd 3a 92 55 bb 18 79 8f 3d c8 93 71 bd
       -0.063909665 -0.0032588379 0.07005519 -0.058978826
000260 45 9d 6c bd 35 d8 03 3b 3f ac 6a 3d 2b fc 96 bd
       -0.05776717 0.0020117883 0.057293173 -0.07372316
000270 a5 31 a7 3e ed 9e 4d 3d f9 2c f7 3c 10 bd 41 3d
       0.32655063 0.05020039 0.030172812 0.047299445
000280 26 0d 12 be a6 42 5a 3e ba 1e 86 3d 47 06 ec bc
       -0.14262828 0.21314487 0.065488294 -0.028811587
000290 b2 b0 1c bc 6f 77 9d bd 7e 71 0b 3d 65 5a 9a 3c
       -0.009563612 -0.07688796 0.03404378 0.018841932
0002a0 c7 81 52 3d 50 9b 22 be b1 75 b0 3d 57 3a fe bc
       0.051393297 -0.1587956 0.08616198 -0.031033678
0002b0 aa ba 7b 3d 25 d1 64 3d c4 b0 37 be 55 73 63 bc
       0.061457314 0.05586352 -0.17938524 -0.013882478
0002c0 03 58 96 3d b5 d7 2d 3e a8 47 11 bd 87 07 4e 3d
       0.07341006 0.16976817 -0.035468727 0.050300147
0002d0 f0 4b 5c 3d 2d 60 ee bb 81 5e 94 3e 63 b3 44 bd
       0.053783357 -0.0072746486 0.2897835 -0.04802264
0002e0 d5 5e b4 bb 8c 1a a2 bd 0e 0b 4a bc fa 6d 2b 3d
       -0.005504469 -0.0791522 -0.012331737 0.04185293
0002f0 32 00 25 bd 77 c8 3c bd d6 37 98 bd 5a a3 00 bc
       -0.04028339 -0.046089616 -0.07432525 -0.007851446
000300 ad 6e 54 3e 36 70 ac bd a4 a6 e8 bd 36 c4 00 bd
       0.20745344 -0.0841984 -0.11359909 -0.03143712
000310 20 af 1b be 05 21 2f bd 63 03 cb bc b3 ff b0 3c
       -0.15203524 -0.0427561 -0.024781888 0.021606302
000320 52 a5 8e 3d a1 48 47 bc 07 61 3d 3d ba ac 39 3d
       0.06965126 -0.012163312 0.04623511 0.04533074
000330 e0 bd 06 3e 17 89 5c be 28 6e c3 3c 1f 61 a5 3d
       0.13158369 -0.2153667 0.023856238 0.08075165
000340 f3 5f 63 3c ef ae 55 3e c5 8a b9 bd 6b 3f ad 3d
       0.013877857 0.20867513 -0.09059671 0.08459362
000350 ac b3 a1 bd 59 97 55 bd 00 fe ae 3d 25 5f f2 bb
       -0.07895598 -0.05214629 0.085445404 -0.007396596
000360 77 c2 3e 3d 30 d9 09 be 55 38 7d 3d f1 80 0b be
       0.046572175 -0.13461757 0.0618213 -0.13623406
000370 cd ee 77 be ca 6d a6 bd 8e fd aa 3d 01 f7 ca bd
       -0.24212189 -0.08126409 0.08349143 -0.099103935
000380 d2 64 f4 3a 8e de 64 3e fb 19 51 bd 60 df 31 be
       0.001864577 0.22350523 -0.051050168 -0.17370367
000390 0a 5a a1 bd 54 18 a4 bd c9 b8 86 3b 22 b3 88 bd
       -0.07878502 -0.08012453 0.0041113836 -0.06674792
0003a0 c9 95 13 3d 8c af bf 3d 4c 8c f8 3c c1 07 17 3e
       0.036031518 0.09359655 0.030340336 0.14749052
0003b0 3f e5 ba 3e 05 46 06 3e d9 74 ee 3d cf 7b a2 bd
       0.36503026 0.13112648 0.11643381 -0.07933771
0003c0 3a a1 8b 3d 85 97 a9 bb 0e 11 3f bc 70 a6 f4 bc
       0.06817861 -0.0051755332 -0.011661781 -0.02986452
0003d0 64 6a ea bb 76 a2 b0 3d 6d c5 a2 bd 93 c5 74 3c
       -0.007153796 0.08624737 -0.07947812 0.0149396835
0003e0 12 bc 83 bc 8c ee b8 3c 16 a3 9f bd 9a da 68 3b
       -0.01608089 0.022574686 -0.07794778 0.0035530687
0003f0 dd 2b 0a 3d 3b 59 9a 3d bf 21 0c 3e 34 26 b9 bd
       0.033733238 0.075365506 0.13684748 -0.0904049

layer_2.bias f4 [64]
000000 4c 61 88 3e 10 f6 09 3f b4 26 0a 3f c3 6e 05 3f
       0.26636732 0.53891087 0.53965306 0.52122134
000010 34 62 07 3f 39 d8 4b 3e 83 af eb be 4a 03 47 3e
       0.5288422 0.19906701 -0.46032342 0.19434848
000020 ac b3 b0 be 03 93 05 3f a4 19 17 3f 24 f4 02 3c
       -0.3451208 0.5217745 0.590235 0.007992778
000030 8d e1 8a bc 22 73 ab 3e 52 8a f3 be ce 6a 1b 3f
       -0.016953254 0.33486277 -0.47566468 0.60709846
000040 14 14 85 3e 03 33 e2 bd 62 01 34 bc 61 01 89 3e
       0.2599188 -0.11044886 -0.010986658 0.26758865
000050 97 38 ac 3e 7e 5c 9f 3e 6c a6 6e be 8e 84 a8 3e
       0.33636925 0.31125253 -0.23305672 0.3291363
000060 b8 56 87 3e cd 18 a3 be 7d 4f 3f 3e a9 59 99 3d
       0.2643335 -0.3185486 0.18682666 0.074878044
000070 d3 0a 80 bd b1 c3 95 3e 18 d5 30 3e c0 71 1c 3e
       -0.062520646 0.29250863 0.17268789 0.15277767
000080 2c 3b 82 3e 4c df 76 3e 7c c1 89 3d 5b 4d e0 3e
       0.2543577 0.24108618 0.06726357 0.43809018
000090 2f cb e8 3e 4a 44 b4 3d 0f a4 b8 3e af 0a 83 3e
       0.45467517 0.088020876 0.36062667 0.25594088
0000a0 69 ee 87 3d e9 c8 ff 3e f9 d2 a3 3e 2f 64 99 bd
       0.0663727 0.4995797 0.31996897 -0.07489812
0000b0 dd 1f db 3b c6 f6 f4 3d 1f e6 94 3e 71 9c cd 3e
       0.006687148 0.11961131 0.29081818 0.40158418
0000c0 8f 5a df 3e 63 c0 e7 3e 7b 43 d0 3e fc 95 3f bd
       0.43623778 0.45263967 0.40676484 -0.046773896
0000d0 54 32 b4 3e c0 8b 53 3e f3 ac 39 3d c5 44 dd 3e
       0.35194647 0.20658779 0.045330953 0.4321653
0000e0 4b 0e 01 3e 56 e2 09 3e 2e 77 82 bd 51 f4 45 be
       0.12603109 0.13465247 -0.06370388 -0.1933148
0000f0 36 00 46 3f f1 8e 9b 3a c7 63 5f 3f 21 fb 6d 3e
       0.7734407 0.0011868161 0.87261623 0.2324033

layer_3.weight f4 [64, 64]
000000 ee 32 a6 3c 7a 92 5a be f7 4e 5a 3d 8d cd d4 bd
       0.020287957 -0.21344939 0.053297963 -0.10390768
000010 77 55 59 3d d9 c6 e4 bd 01 25 ec 3a b3 bf 4d 3e
       0.05306002 -0.1117074 0.0018016399 0.20092659
000020 12 61 ef 3c 76 e1 23 3e d4 0f 9a 3d 4c ba 28 bd
       0.029221091 0.16003975 0.0752255 -0.04119329
000030 ca 0c ce 3d 4d 74 8f 3d b1 39 c3 3c aa 0c 8e be
       0.10061033 0.070046045 0.02383122 -0.27744037
000040 ec 05 0e 3d 66 e0 6a bd a5 68 ce bd 03 8a 54 3d
       0.034673616 -0.05734291 -0.10078553 0.05188943
000050 a6 18 1b 3e 96 07 8a 3d 78 f7 ce 3d dd 1b a7 bd
       0.15146121 0.06739728 0.10105795 -0.081596114
000060 82 14 3a 3e 74 96 13 3e 32 fa f5 3c aa fe 98 bc
       0.18171886 0.14412862 0.030026529 -0.01867612
000070 2b b1 f6 bd f4 cf 1c 3e e5 8f 9d bd 7e 12 f3 3d
       -0.12045511 0.15313703 -0.07693461 0.118687615
000080 6d 0a 83 be 15 ce 57 3d 7b 68 19 3e 0c 78 33 3d
       -0.25593892 0.05268677 0.14981262 0.043815657
000090 74 a0 04 3e a4 1c e5 bc ae 39 b3 bd f0 27 1c 3c
       0.12951833 -0.027967758 -0.08751236 0.009531006
0000a0 fc 1a b6 3c c5 f3 15 bd c0 df cd bd 71 11 33 3b
       0.022229664 -0.03660943 -0.100524426 0.0027323628
0000b0 7d 94 61 bd 53 75 96 bd cd 65 56 3d 72 e3 43 3d
       -0.05507325 -0.073465966 0.05234318 0.04782433
0000c0 c7 38 a8 bd a3 65 1c 3d 07 c3 23 3c ea f7 80 bd
       -0.082139544 0.038182866 0.009995229 -0.06297286
0000d0 fe 82 a2 3c b4 37 03 be 5f f1 91 3b 7b 29 27 3d
       0.019837853 -0.12814218 0.0044538225 0.040811043
0000e0 2c 84 f6 3d 0c 14 0c bd 19 23 b6 bd 17 39 8d bd
       0.120369285 -0.034198806 -0.08893413 -0.06895655
0000f0 af b4 89 bd dc 66 ba bd 07 e2 b4 3d 29 b3 46 bd
       -0.06723916 -0.0910165 0.08832174 -0.048510704
000100 49 31 7b 3b 13 90 90 3e a1 cd 76 b8 45 f9 3f 3d
       0.0038328937 0.2823492 -5.8842477e-05 0.04686858
000110 ab a2 9f bc 18 c3 ed bd c1 51 73 bd 57 88 9e bd
       -0.019486746 -0.11609477 -0.05940414 -0.077408485
000120 2e 24 8b bc 46 f9 c6 bc e0 90 4a 3d fb 18 b9 3e
       -0.016985025 -0.024288785 0.04945457 0.3615187
000130 f0 3b c0 bc 94 1e a3 bb 74 82 7b be b1 77 3c 3e
       -0.02346608 -0.0049780104 -0.24561483 0.18405034
000140 56 fb 9d 3d 8c 96 58 3e e3 b1 d5 bb 35 3b 36 be
       0.07713954 0.21151179 -0.00652145 -0.17796023
000150 90 8b 2c 3d 10 c1 eb 3d 5a 3c 47 3d 22 f9 8b bd
       0.042125285 0.11511433 0.04864154 -0.06834628
000160 bf 39 4d 3d e6 ec 8e bd c0 dc c7 3d bd a1 c4 bd
       0.0501039 -0.069787785 0.097589016 -0.09601162
000170 e6 35 b7 3a ae 06 2e bd 4b 7b d2 bd 4e aa 06 3d
       0.0013977855 -0.04248684 -0.102774225 0.03287726
000180 2c 39 ad bd 94 43 a3 ba bc 62 7c bd b9 b8 6b 3d
       -0.0845817 -0.0012456053 -0.061617598 0.057549212
000190 27 9e 60 3d 6a 8c 11 bd 4c 93 41 3d 16 4f d8 3d
       0.054838326 -0.0355343 0.047259614 0.105619594
0001a0 a0 b7 b1 3d b5 a2 17 be 5c be 8e 3c 51 c9 7d bd
       0.08677602 -0.14808162 0.017424755 -0.06195957
0001b0 61 29 84 bc c0 bb ea bc 73 e4 fd bd cd fe 08 bd
       -0.016133012 -0.02865398 -0.12397089 -0.033446122
0001c0 da 00 e7 bd e6 eb 40 3c a5 82 99 3e b6 a4 8e 3c
       -0.11279459 0.011774993 0.29982486 0.017412525
0001d0 2b 8e 1f 3d f8 19 0d 3e 7f 1c 28 3c 57 4e a6 bc
       0.03895394 0.13779438 0.0102607 -0.020301027
0001e0 c9 3e 0d bd 6e e5 09 3e ea 22 e1 bb 55 85 88 3d
       -0.034483705 0.13466427 -0.006870617 0.06666056
0001f0 c1 b0 83 3d e3 78 d5 3a e1 2c 53 3e ff 20 ca 3d
       0.064301975 0.0016286637 0.20622589 0.09869575
000200 9c af 24 bd 35 20 2e 3d be 42 90 3d be 23 92 3d
       -0.040206537 0.042511184 0.0704398 0.071357235
000210 44 72 90 3d fa ef c3 bd c6 81 67 bc 87 99 2c bc
       0.070530444 -0.09567256 -0.0141300615 -0.010534651
000220 0f 23 21 3f 96 0a ca bc b9 32 9e ba 47 9f e7 bc
       0.6294412 -0.02466325 -0.001206956 -0.028274192
000230 b0 54 8e 3e cc d1 b0 bc 98 11 bc 3c 1a 94 cf 3c
       0.27798986 -0.021584414 0.022957608 0.025339175
000240 0d 11 fc bd d9 c0 52 3e 4a 11 f8 3b 13 4b e2 bc
       -0.1230794 0.20581378 0.0075704204 -0.027623689
000250 42 ac 83 bd 03 f9 f4 bd 71 82 b4 3a ba 80 8f bb
       -0.0642934 -0.11961558 0.0013771785 -0.004379359
000260 9d f6 67 bd 1e 28 05 bd a9 fb 29 bc 76 84 3a bd
       -0.056631673 -0.03250896 -0.010374942 -0.04553648
000270 e0 cc 29 3d 32 04 88 bd ef 2f a4 3d ac a9 bd 3c
       0.04145515 -0.06641425 0.08016955 0.023152195
000280 c8 e0 89 3c 7d b1 f8 3b d3 bd d3 bc 30 f7 b0 3c
       0.016830817 0.0075895176 -0.025847351 0.021602243
000290 d7 4a be 3d ae 6c 27 bc d9 bb 73 3d 59 49 61 bc
       0.09291618 -0.010218782 0.059505317 -0.013750398
0002a0 a9 09 81 3e 55 b3 b8 bb 22 66 6f 3b f6 b7 1f be
       0.25202683 -0.0056366124 0.0036529382 -0.1559752
0002b0 02 e0 6d bd db 4d ba bc b5 e2 c4 3d d5 f9 3c 3d
       -0.05807496 -0.022742203 0.096135534 0.046136696
0002c0 56 9c 3a 3e 0e b8 7a bc 36 e0 7f bd b8 4e ea ba
       0.182237 -0.015302671 -0.062469684 -0.0017876243
0002d0 9f 9b ac 3b 7b 97 c3 bd 63 27 4a 3c ad 73 5d 3c
       0.005267575 -0.09550377 0.012338492 0.013516349
0002e0 d3 39 29 bd 20 ff 95 bc 25 cf bd 3c 4c 4a f7 bc
       -0.04131491 -0.01831013 0.023170063 -0.030186795
0002f0 7f ef de 3c 5f 89 1a be 56 53 26 bd 8e 33 30 3d
       0.02721381 -0.15091465 -0.04060682 0.043017916
000300 bc ff d8 3c 85 2a dd 3c 7e d3 18 bb 53 f0 ae 3c
       0.026489131 0.026997814 -0.0023319419 0.02135483
000310 38 6e 35 bd 04 bb 0f bc ae d1 40 bd d0 8c a0 3d
       -0.044294566 -0.008772615 -0.047074966 0.07839358
000320 9c 26 91 3d a9 9f 05 3e 0d 79 dc 3d a7 9c 69 bd
       0.07087442 0.13049187 0.10765276 -0.05703416
000330 76 f6 7f bd 7a 65 64 3d 0e da 0b 3e e2 4c 91 3c
       -0.062490903 0.055760838 0.136574 0.017736856
000340 3c a3 c7 3d 27 a9 21 bd bd 4b 11 3e ab 95 77 3b
       0.09747931 -0.039467957 0.14189048 0.0037778418
000350 0b 63 da 3c a2 2e b6 3d a6 33 88 bd bd e0 56 3d
       0.026658555 0.08895613 -0.06650476 0.05246042
000360 52 b9 d4 3a 0e 95 8b bd b6 33 21 3d a8 b6 49 bd
       0.0016229546 -0.06815539 0.039355956 -0.04924646
000370 fc b2 f9 bd 7e 4d d1 3d 94 20 29 be d3 0a ee 3d
       -0.12192342 0.102198586 -0.16516334 0.11623158
000380 03 e6 3f 3c 14 ad 6f 3e 81 df e4 bc 81 8d 0e bd
       0.011712554 0.23405868 -0.027938606 -0.034802917
000390 d6 2d 24 bc 20 c8 45 bf 2b 4c 1e be 23 d7 62 3d
       -0.010020694 -0.7725849 -0.15458743 0.05538095
0003a0 e8 11 82 bd 9d cb c8 3b 22 85 96 3d ac cd d3 bc
       -0.063510716 0.006127788 0.07349612 -0.025854908
0003b0 5e 08 5a 3d d0 16 73 3d b2 ca 25 bd 4a bc 0a 3e
       0.053230636 0.059347928 -0.04047651 0.13548389
0003c0 af 96 3f 3d aa 72 1b 3d 9f 5d a5 3c f0 b5 cd 3d
       0.046774562 0.03795115 0.020186244 0.100444674
0003d0 16 76 07 3d 37 26 37 bd ac 9b 3a 3d da 1b 36 3e
       0.0330716 -0.04471418 0.045558617 0.17784062
0003e0 9e 4f c1 bd ea e4 56 3e 4b b8 da 3d d0 29 ae 3c
       -0.09439014 0.20985761 0.10679682 0.021260172
0003f0 63 1c d0 3c 08 dc df 3d 8f d8 ba bc ea 19 06 3e
       0.02540416 0.109306395 -0.022808341 0.13095823

layer_3.bias f4 [64]
000000 49 be d9 3e d0 24 04 bd bd 5a a6 bd 31 40 08 3e
       0.4252799 -0.03226167 -0.08122776 0.13305737
000010 17 a9 d1 be b7 e1 93 3e 8f bd 81 3e 55 e7 0d 3e
       -0.40949318 0.28883144 0.25339934 0.13857777
000020 c2 6e 89 3b 38 d1 d1 3d c8 35 bc bd 6f 7b b0 3e
       0.0041941116 0.102449834 -0.091899455 0.34469172
000030 a7 52 d9 3e e4 ad 79 3e 6a 94 ab be b8 3f 55 be
       0.4244587 0.2438274 -0.33511668 -0.20825088
000040 ee dc 5a be 51 d9 77 bd 9e 19 70 3e 8f ff a0 3e
       -0.2137334 -0.060509983 0.23447272 0.31444976
000050 42 f1 09 3a 49 4d 5b 3e 7e 11 81 3e 8a dd 86 3e
       0.00052620855 0.214162 0.25208658 0.26340896
000060 90 f2 fd 3d 7e f1 96 3e 5f 80 83 3d 76 23 a8 3e
       0.12399781 0.2948112 0.06420969 0.32839555
000070 6b 36 52 3d 49 0c 1d 3e 2a 75 20 bd 9b b5 d5 3e
       0.05132143 0.15336718 -0.039174236 0.41740116
000080 c1 31 6c 3e 77 15 05 3f 39 8f 8c bd bc 65 b8 bd
       0.23065855 0.5198588 -0.06863255 -0.09003779
000090 a4 4e ad bc 36 cf 14 3e 6a b1 a9 bb a1 1c a6 bd
       -0.021155663 0.1453217 -0.00517862 -0.08110929
0000a0 94 b8 c9 3e 66 69 03 3d 97 7b ed 3d 42 98 71 bd
       0.39398634 0.032082938 0.115958385 -0.058983095
0000b0 56 3c 47 3e 89 5e ac be a7 a5 03 3e d1 81 03 be
       0.1945661 -0.33665875 0.1285616 -0.1284249
0000c0 a2 1f 88 3e 30 0e be bd 96 e1 29 bc 8f ac f0 bc
       0.26586634 -0.0928005 -0.010368725 -0.029379157
0000d0 d1 c3 7a bb 37 90 8b 3e f7 c3 4f 3e 3a 0e 9e bd
       -0.0038263688 0.27258465 0.20289598 -0.07717557
0000e0 5b 81 2c 3e a4 88 4f 3e 44 80 31 be e7 f5 e0 bc
       0.1684622 0.20266968 -0.17334086 -0.027461005
0000f0 84 f8 0d 3f 98 6d 89 3e a9 2d 81 3e 94 1a 76 3e
       0.5545733 0.26841426 0.25230148 0.24033576

layer_4.weight f4 [64, 64]
000000 a3 fa f4 bc 1b 1b ba 3b 77 27 ad 3d 81 74 f0 3d
       -0.02990467 0.0056795008 0.08454793 0.11740971
000010 ec 6a 31 be a0 d0 b4 3d 00 96 dc 3c 5f 9b cc 3b
       -0.17325944 0.088288546 0.026926994 0.0062441076
000020 fb 20 b9 3d 00 df e3 3d c4 9d 74 bd 45 e1 78 3d
       0.09039494 0.11126518 -0.05972077 0.06076171
000030 34 7a b7 3d b2 ba 56 3b b6 20 20 3d 5b cd c0 3d
       0.08958855 0.0032765088 0.039093696 0.094141684
000040 e3 12 e4 3d 19 78 82 3d 18 7a fb bb ba 5e 1f bd
       0.11136415 0.06370563 -0.007674467 -0.038908698
000050 6c 28 b6 3d 36 6d 1b 3d 84 79 a7 bd 97 23 1b 3c
       0.088944286 0.03794595 -0.08177474 0.0094689345
000060 b5 97 cc bd da fa 27 be 5e 4c 99 3d db 8d 47 3c
       -0.09989873 -0.16404286 0.07485269 0.012179817
000070 6b 81 98 3e 7b d1 cd 3d cd 49 43 be 53 e6 49 bd
       0.29786238 0.10049721 -0.19071122 -0.04929192
000080 5a d5 d0 bd 00 2c 20 3e 75 90 49 bd 8b f9 f0 3c
       -0.101969436 0.15641785 -0.04921003 0.029415866
000090 c9 b7 c4 bd b0 84 3c bd 11 3d ef bd 49 c3 36 be
       -0.09605367 -0.04602498 -0.11681569 -0.17847933
0000a0 5f e7 51 bc 16 aa 85 3d 72 70 9e 3d 6d 34 df bd
       -0.012811511 0.06526582 0.07736291 -0.10898671
0000b0 b7 6a 30 be 74 d9 75 3d 1f d1 97 bb 41 6c a8 be
       -0.17228208 0.060021833 -0.0046330835 -0.3289509
0000c0 dc 3c 82 bd 89 4f b6 bc 07 68 32 bc bf 5b 62 3d
       -0.06359264 -0.022254722 -0.01088906 0.055263277
0000d0 0b 88 b9 bd 9b bb 96 3c 6c da 06 3e 3f a0 77 bb
       -0.09059151 0.018400004 0.13169259 -0.0037784723
0000e0 48 fc 9d 3d 16 c8 2d 3e 06 06 a1 3c 08 4f 52 3d
       0.077141345 0.16970858 0.019656193 0.0513449
0000f0 05 7f 3c 3d 31 d4 28 be 41 29 12 be 9f 96 d1 bd
       0.046019573 -0.16487195 -0.1427355 -0.10233807
000100 48 55 f1 bc 4e d6 b3 3d 58 be 66 3d 42 07 97 3d
       -0.02945961 0.0878111 0.05633387 0.07374431
000110 26 29 7f bc cb d3 00 3d 7d a4 0d bd 4a d7 36 bc
       -0.015573775 0.03145198 -0.034580696 -0.011159727
000120 c0 6e 29 3c 71 b4 b0 be 50 45 83 3d dd f6 7d 3d
       0.010341346 -0.34512666 0.06409705 0.062003005
000130 e7 58 4b bc 6b 92 37 be 8b 56 5c 3e 17 af 69 3d
       -0.012411333 -0.17926948 0.21517389 0.057051744
000140 e1 17 9e bd 41 51 61 bc ad e7 ca bc 0f 55 8e 3c
       -0.07719398 -0.013752283 -0.024768675 0.017374543
000150 f1 52 12 bc e4 19 94 be d7 10 9d bd a2 a4 19 be
       -0.008930908 -0.28926003 -0.076692276 -0.15004209
000160 0f ea 65 3c 86 62 62 bd 9f e5 30 bd 59 b7 9b 3c
       0.014032855 -0.05526974 -0.043187734 0.019008325
000170 74 93 7a 3d 50 29 00 3a 51 1e 4a bc 78 16 2e 3d
       0.06117578 0.00048889685 -0.01233633 0.042501897
000180 54 45 90 bd 9c 13 b8 be 2e 6a 2b 3c e6 1d f5 3c
       -0.07044473 -0.3595246 0.010462327 0.029921483
000190 f2 7d 35 3c 49 85 8d bd 9d 48 25 bd ed b1 f5 bc
       0.011077391 -0.06910188 -0.040352453 -0.029992068
0001a0 0a 73 30 bd 66 dc 0e 3d 5f 14 01 3d 6e 76 63 be
       -0.04307846 0.034878157 0.031513568 -0.22213146
0001b0 0c 6a 52 ba 4e c3 87 3c dc 02 72 3d 57 8f 9a bc
       -0.00080266665 0.01657262 0.05908476 -0.018867178
0001c0 d0 7d 03 bd f2 e9 37 bc c9 d7 9a 3b 98 b9 39 bd
       -0.032102406 -0.0112252105 0.0047254306 -0.04534301
0001d0 94 a5 c9 bb f3 ea 3c bd f1 2c bf be 10 78 ed bb
       -0.0061537717 -0.046122503 -0.37338975 -0.0072469786
0001e0 d1 0a eb bc 5e d4 3a 3c ad fa b3 bc 25 e3 d7 3c
       -0.028691681 0.011403171 -0.021970117 0.026353428
0001f0 a3 c6 ca bc ca a6 36 bd 08 42 2f 3d 19 f7 de 3b
       -0.02475292 -0.044592656 0.04278758 0.0068043587
000200 8b 9a 7d 3d 6e 93 97 3c de a8 0a be c2 26 2e 3c
       0.06191496 0.018502917 -0.1354098 0.010629358
000210 37 1a ff bd a2 85 06 bd f7 96 c1 bc c6 47 22 3e
       -0.12456172 -0.032842286 -0.023631556 0.15847692
000220 53 66 b9 3c 2b c9 29 bd 66 34 54 be 7c b4 bb bc
       0.0226318 -0.041451614 -0.20723113 -0.02291321
000230 e9 d8 ee 3d 65 d3 89 bb 64 f0 25 3d 5f ed 27 be
       0.11662466 -0.0042061084 0.040512457 -0.16399144
000240 98 3e 0f bd 84 2f 89 bd 91 3c ea 3c 9e 13 e8 bd
       -0.034971803 -0.06698516 0.028593333 -0.11331867
000250 cf d1 43 be 35 b0 82 bd 9b 31 89 3d 49 ee 23 bb
       -0.19123004 -0.06381265 0.066989146 -0.0025013855
000260 13 cb 00 3e d3 df 94 bd 09 09 81 be 1b a7 dc 3c
       0.12577467 -0.072692536 -0.25202206 0.02693515
000270 7f a0 e9 3d a2 8a a8 3b dd d7 0b bd ed 4d ef 3d
       0.11407565 0.0051434794 -0.03414141 0.11684785
000280 7d 27 a7 3c 28 e5 e3 bd 38 58 95 be 04 76 8b 3c
       0.020404572 -0.111276925 -0.29168868 0.017024048
000290 18 3d 24 3e 59 c6 46 bd c7 0d ce 3d 8a 7d 01 bd
       0.1603893 -0.048529003 0.100612216 -0.031613864
0002a0 a7 68 05 be 89 69 81 be 95 58 78 3c f4 38 18 bd
       -0.13028203 -0.2527583 0.015157838 -0.03716369
0002b0 20 24 24 be 2a 62 9a 3b 5f 04 b9 bc 21 24 d0 3b
       -0.16029406 0.004711409 -0.022585092 0.006351963
0002c0 a8 52 39 bd 23 da c4 bc 1a ca e1 3c 5e 57 40 3e
       -0.045244843 -0.024029797 0.02756219 0.18783328
0002d0 81 d7 4a bc b9 85 e0 bc f6 d2 f7 bd 95 0b 86 3c
       -0.012380482 -0.027407514 -0.121007845 0.016362945
0002e0 d1 14 18 3e 6c 11 a8 3d 04 0f dc bc b5 f6 82 ba
       0.14851691 0.08206448 -0.026862629 -0.0009991737
0002f0 65 81 99 3d bc 6c ab bd 98 ca f2 bc 1f 62 db 3b
       0.07495383 -0.08370349 -0.02963762 0.0066950466
000300 88 92 07 3d 87 36 b4 3d 78 dc 91 3d 07 b0 79 bd
       0.033098727 0.08799463 0.07122129 -0.06095889
000310 09 fb 8c bc f6 3e 8e bd b6 71 c5 3b a3 b2 21 bc
       -0.017209547 -0.069456026 0.0060255183 -0.0098692505
000320 3f 85 c5 3d d0 d0 d7 3d 75 df 09 3d cf 20 d4 bd
       0.09644555 0.10537875 0.03366037 -0.1035782
000330 77 df c9 3d 3b 9d c4 3d 87 ec d5 bd 1e a4 39 bd
       0.09857076 0.09600302 -0.10445505 -0.04532253
000340 5a 59 d8 3b 3b 92 1c 3d 26 ba 40 3d 7d 9f dc bc
       0.0066024484 0.038225394 0.047052525 -0.026931519
000350 31 21 83 3d 94 8c 5b 3d c5 57 70 bd b2 93 79 3d
       0.06402815 0.053600863 -0.058677454 0.06093187
000360 01 d5 21 3d a5 61 9e be 93 84 05 bd b1 20 41 3d
       0.039509777 -0.30933872 -0.032597136 0.047150318
000370 cc ca 6a 3e 18 16 55 bc 30 60 8e bc 9f be 09 3e
       0.22928923 -0.013005756 -0.01737985 0.13451622
000380 95 26 8d 3d 59 38 ac 3d 51 14 2e bd 41 2e a2 3d
       0.068921246 0.08409185 -0.042499844 0.079189785
000390 b1 9a 1a 3e b6 05 70 bd 4e be fa bc 1e 85 60 be
       0.15098073 -0.058599196 -0.030608322 -0.2192578
0003a0 a2 b9 06 3e 86 10 ab bc 42 9a 42 be 0c 0a 8f 3c
       0.13156751 -0.020881902 -0.19004157 0.017460845
0003b0 74 26 3e be a2 4d e6 bb 63 19 2a bd e2 72 ac be
       -0.18569356 -0.0070282975 -0.041528117 -0.336814
0003c0 74 ec 0c be 95 2e 0b bd 94 5d a5 3d 9b 5f 80 3d
       -0.13762075 -0.03397997 0.08074489 0.06268235
0003d0 46 3b 62 bd a8 5f 10 3e 3a 4e fa 3d 31 56 ed 3d
       -0.05523231 0.1409899 0.12221952 0.11588705
0003e0 de 61 bd 3d 9a 80 43 3e 89 17 a2 3c 60 13 d0 3d
       0.09247182 0.19092026 0.019786613 0.101599455
0003f0 1d 35 04 3e 85 2e 95 be e6 dc 02 bc ef af a5 bd
       0.12910886 -0.29137054 -0.007987237 -0.08090197

layer_4.bias f4 [64]
000000 18 72 6f bd df b2 e3 3c fb d3 90 3d 5a 83 4b be
       -0.058458418 0.027795253 0.07071682 -0.19874325
000010 1a b8 4e be 52 5e 46 bd 83 e4 30 3d b7 33 08 be
       -0.20187417 -0.048429795 0.043186676 -0.13300978
000020 29 6a 07 be 42 a5 bc be 29 2f 74 be 7c 3b 4b be
       -0.1322409 -0.36844832 -0.23846115 -0.1984691
000030 68 ed aa be 38 47 8a be 43 f6 46 3e 8e 3f 90 be
       -0.33384252 -0.2700746 0.19429879 -0.28173488
000040 3f 7a a4 bd e4 31 9c be e5 e4 22 be 40 3f 61 be
       -0.08031129 -0.30506814 -0.15907629 -0.21996784
000050 0f 41 91 bc 41 8f 05 be bb cd 34 be 71 fa 15 be
       -0.017731218 -0.13042928 -0.17656605 -0.14646317
000060 6d aa 86 be 2d 34 46 be da 9c 2b be 68 29 5b be
       -0.263019 -0.19355841 -0.16759053 -0.21402514
000070 e2 cf 55 bd af c9 9a be 26 5f c2 be b9 36 2d 3e
       -0.052200206 -0.30231997 -0.37963217 0.16915406
000080 a2 06 a9 bd 1d 64 90 be af 30 70 be f1 d9 79 be
       -0.08253218 -0.2820138 -0.23456071 -0.24399544
000090 12 eb 2a 3d 99 34 9f be bb 63 49 be fc db ce be
       0.041728087 -0.31094816 -0.1966695 -0.4040221
0000a0 49 83 5d be 7c 72 75 3e d7 78 84 be 2b 45 25 bd
       -0.21632113 0.23969454 -0.25873443 -0.040349167
0000b0 68 49 e0 bd cf d7 11 be c6 37 ed bd 73 e6 74 be
       -0.10951501 -0.1424248 -0.115829036 -0.23916034
0000c0 87 68 1f be 7d c8 4b be 89 3a b0 3d 2a 01 0f be
       -0.15567218 -0.19900699 0.08604915 -0.13965288
0000d0 1a bb 55 3e 12 01 36 be 19 74 a0 be f9 22 47 be
       0.20872155 -0.17773846 -0.31338575 -0.19446935
0000e0 d1 f5 d5 3e 27 82 1d be 74 7c 58 be 18 a5 1b bd
       0.41789106 -0.1538168 -0.21141225 -0.037999243
0000f0 81 4f 8d be 1e 25 89 be ba 86 09 3e 79 82 90 bd
       -0.2759972 -0.2678613 0.134303 -0.07056136

layer_out.weight f4 [1, 64]
000000 44 02 2c bd d2 91 93 3e 7d bf 59 3e d2 8c 4a bd
       -0.04199435 0.2882219 0.21264453 -0.049450703
000010 56 a5 bf bd ae 08 6f bd 5f 68 5a 3e 93 af a2 bd
       -0.09357707 -0.058357887 0.21328877 -0.079436444
000020 7f 72 90 bd c5 08 14 bd c9 fe 1c bd c4 d9 8a 3e
       -0.070530884 -0.036141176 -0.03832892 0.27119267
000030 9b f7 27 3e 73 ba 29 3e c5 3d bc bd b1 9d 5b bd
       0.16403048 0.16575031 -0.09191469 -0.053617183
000040 02 8f 91 3e f3 3c 95 3e 92 4e a7 bd 64 25 08 3e
       0.2842942 0.29148063 -0.08169283 0.13295513
000050 f7 06 4f 3e 5a 95 12 3e 99 6d 1f 3e 47 57 9a 3e
       0.202175 0.14314786 0.15569152 0.30144712
000060 e3 00 d4 bd 9b 1b 33 3e 6b f0 3f 3e 64 64 89 3e
       -0.10351732 0.17491 0.18744056 0.26834404
000070 66 27 40 3e f7 14 04 be 46 26 ea bd bc 68 ef 3d
       0.1876503 -0.12898622 -0.11433081 0.11689898
000080 28 f9 2f 3e a3 c5 15 3e 74 e1 01 be 2e a5 43 bd
       0.1718489 0.14626174 -0.1268366 -0.04776495
000090 7a b9 05 3e 8c bf 36 bd ac 7b 24 bd bf ba 4b 3e
       0.13059035 -0.044616267 -0.040157005 0.19895457
0000a0 1c 29 88 3d 2b 2a c5 bd b8 11 14 bd 4e fc fc 3d
       0.06648466 -0.096271835 -0.03614971 0.12352811
0000b0 63 ad 4d 3e b5 2e d6 bd 59 77 80 3e 56 55 34 3e
       0.20085673 -0.104581274 0.25091055 0.17610678
0000c0 c8 39 17 bd 49 44 4e bd 00 3e 7f bd b4 66 3f bd
       -0.03692034 -0.05035809 -0.062314987 -0.046728805
0000d0 80 ce bc bd 82 63 76 bd 78 85 95 bd dc a2 bc bd
       -0.09219074 -0.06015349 -0.07300848 -0.092107505
0000e0 95 57 dc bd fd 0c b6 3d 6c 59 46 3e 89 a0 b3 bd
       -0.107588924 0.08889196 0.19370049 -0.08770854
0000f0 e3 84 2b 3e 98 53 be 3d 5a ca c0 3d 82 b9 53 3e
       0.16749911 0.09293288 0.094135955 0.20676234

batchnorm1.weight f4 [64]
000000 59 5e d9 3e b2 84 4a 3f f3 11 84 3f a6 bd 47 3f
       0.42454794 0.79108727 1.0317978 0.78023756
000010 4f a4 2f 3f bf 8c c2 3f b5 8c db 3e ef 4e 5e 3f
       0.6861009 1.5199202 0.42880788 0.86839193
000020 9c f3 13 3f ce c7 ab 3e a8 16 ab 3e 24 4a 97 3f
       0.57793593 0.33550876 0.33415723 1.1819501
000030 e1 da 89 3e 94 e5 84 3f 57 82 02 3f f9 13 14 3f
       0.26924804 1.0382562 0.5098013 0.57842976
000040 01 ca 27 3f 5a 53 94 3f 23 38 45 3f 35 1b 1f 3f
       0.6554261 1.1587937 0.7703878 0.6215089
000050 6d 31 db 3e 48 a8 3c 3f cc 21 15 3f b8 f2 66 3f
       0.42811146 0.73694277 0.58254695 0.9021411
000060 71 6d 46 3f d3 86 29 3f 46 0a 90 3f 4a 18 25 3f
       0.77510744 0.6622135 1.1253135 0.6449019
000070 37 0b 6b 3f e6 02 a3 3e 41 68 ab 3e 60 29 74 3f
       0.9181399 0.3183815 0.33477977 0.95375633
000080 5d 19 41 3f 13 e7 98 3f a9 98 25 3f 92 30 c6 3e
       0.75429326 1.1945518 0.64686066 0.3870893
000090 42 aa 3f 3f 5b 5c 81 3f 7b c1 b5 3e 73 9c a3 3e
       0.7486917 1.010631 0.35499176 0.319553
0000a0 04 f5 4c 3f 3c 7a 4f 3f f1 b9 80 3f 3e 69 81 3f
       0.80061364 0.8104589 1.0056745 1.0110242
0000b0 83 bc d5 3e 86 97 0e 3f eb fe 1c 3f 12 f8 f9 3e
       0.41745386 0.55699956 0.61326474 0.48822075
0000c0 34 bd fd 3e d4 8c 9d 3f e4 d8 ab 3f 76 17 d6 3e
       0.49558413 1.2308602 1.3425565 0.41814774
0000d0 3b 60 68 3f 56 ea 8a 3f aa d8 9f 3f 43 57 a7 3e
       0.90771836 1.0852764 1.2487996 0.32683763
0000e0 97 0c 32 3f f4 13 81 3f fc cb 0e 3f 46 b6 9d 3f
       0.6955046 1.0084214 0.55780005 1.232125
0000f0 25 78 9b 3f 04 49 83 3f 7b d4 b1 3f 95 7e 2c 3f
       1.214604 1.0256658 1.3892969 0.6738065

batchnorm1.bias f4 [64]
000000 78 c5 cd 3b 52 07 19 3e b5 23 38 bb 7a 00 1d be
       0.0062796436 0.14944199 -0.0028097455 -0.15332213
000010 fb 35 5f bd 80 a3 0e be 8c 45 b1 be 7f 77 0f 3e
       -0.05449484 -0.13929558 -0.34623373 0.14010428
000020 76 58 cc 3e fb 29 86 3e c7 cd a9 3e 29 e1 71 be
       0.3991124 0.26203904 0.33164808 -0.23621048
000030 a6 ba dc 3e d6 ac 4c 3e 7f b0 28 3f 93 6e ae 3e
       0.4311115 0.19987807 0.6589431 0.34068736
000040 de b1 a4 bd 3a b7 a4 3e a9 8c dc 3c ec 43 c8 3d
       -0.08041738 0.3217104 0.02692254 0.0977858
000050 ed f2 24 bf 8c 39 97 bd cb eb ea 3e 52 dd b6 3b
       -0.64433175 -0.07384023 0.4588302 0.0055805827
000060 d7 4c db be c2 cf dd bd c0 c1 2c 3e a2 81 ec be
       -0.42832062 -0.10830642 0.16870785 -0.46192652
000070 0f 36 44 3f 17 64 ad 3e 34 85 d5 bb d7 e9 ad 3d
       0.76644987 0.33865425 -0.006516123 0.08491867
000080 60 9e 15 3e 36 0b 8c be 77 67 cf bd e3 69 b4 be
       0.14611197 -0.27352303 -0.10127156 -0.35237035
000090 58 41 18 3f 2f 99 1d be 1b 1a 26 3f 24 25 d3 be
       0.59474707 -0.15390466 0.64883584 -0.41239274
0000a0 c3 b4 0d be a5 1b 40 3c 90 fc c4 be 16 11 27 3e
       -0.13838486 0.011725341 -0.3847394 0.16315112
0000b0 b4 7b 0e 3f 40 0a b6 3e 14 b3 82 3e 4e f8 1c bf
       0.55657506 0.35554695 0.2552725 -0.6131638
0000c0 1f 07 2c 3f 40 0f c1 3e 63 20 7a 3e 64 b2 90 3d
       0.67198366 0.37706947 0.24426417 0.07065275
0000d0 31 c5 ae 3e 21 6e ad 3e d7 81 2f 3e 59 72 19 bd
       0.3413482 0.33873084 0.17139374 -0.037462566
0000e0 0c 48 8d 3e 56 5f 06 3e f3 21 11 39 4f 4b c1 3e
       0.2759403 0.13122305 0.00013840925 0.37752768
0000f0 37 4c 53 3e bb 6c 6b 3e b9 71 8f bc c9 b3 65 3e
       0.20634542 0.22990696 -0.017510282 0.22431864

batchnorm1.running_mean f4 [64]
000000 86 00 46 3e cf 7c d1 3d da 7d ac 3d 52 e4 d7 3e
       0.19336137 0.102288835 0.08422442 0.42166382
000010 a5 17 4b 3f 8e cb 53 3e de 76 4d 3e 32 bb 36 3e
       0.79332954 0.20683119 0.20064875 0.17844847
000020 e9 69 e4 3e f2 7a 88 3e 57 be da 3e ae 2b ef 3d
       0.44612053 0.266563 0.42723343 0.11678253
000030 5a 82 b0 3e 06 9d 42 3e 3a 27 ce 3e 0c 4b 41 3f
       0.3447445 0.19005212 0.40264302 0.7550514
000040 53 53 71 3e b5 e9 03 3e 43 d1 0f 3f 61 b5 44 3e
       0.23566942 0.12882121 0.56178683 0.19209816
000050 a6 39 e5 3e 2c 48 06 3e 91 a9 1a 3f fb 0b 20 3e
       0.44770545 0.13113469 0.6041499 0.1562957
000060 74 50 9a 3e 4d 63 ac 3e 9f 92 d6 3d c2 22 0e 3f
       0.30139506 0.3366951 0.104771845 0.55521786
000070 57 2f 67 3e 78 bf 93 3e c7 7e 2b 3e 87 bd cc 3e
       0.22576652 0.28857017 0.1674758 0.39988348
000080 56 9a 8f 3e 1b 6a bd 3d 0d fa 06 3f 67 70 cd 3e
       0.28047436 0.09248754 0.527253 0.4012482
000090 75 18 99 3e ae d5 e0 3d 72 b6 b6 3e 2f 1d 05 3f
       0.29901472 0.10978256 0.3568607 0.51997656
0000a0 f2 8e f0 3e 25 31 f8 3e a1 2a 87 3d d6 e8 80 3d
       0.4698406 0.48474994 0.06599928 0.0629441
0000b0 d4 2f a4 3d 5b a6 97 3e 8c 04 a9 3e d2 fe eb 3e
       0.08016935 0.29619107 0.33011281 0.4609285
0000c0 57 f1 d7 3e 39 43 0a 3e a3 14 29 3e 3c 37 a7 3e
       0.42176315 0.13502206 0.16511779 0.32659328
0000d0 50 4e 62 3d 85 32 c1 3e 55 55 23 3e 2b 28 f7 3d
       0.055250466 0.37733856 0.1595052 0.12068208
0000e0 94 41 21 3f 3c 28 c8 3d 13 99 05 3f 5f 18 be 3d
       0.6299069 0.09773299 0.521867 0.09281992
0000f0 2c 07 09 3e 54 2b a2 3d 3e f6 e0 3d 76 8f fd 3d
       0.13381642 0.079184204 0.10984467 0.123808786

batchnorm1.running_var f4 [64]
000000 e9 63 96 3d ec 27 a0 3c ef 70 a5 3c 2d e1 bd 3c
       0.07343275 0.019550286 0.020195452 0.023178661
000010 58 b1 e9 3d e9 0b 0a 3d 0b 89 c9 3d 54 92 a7 3b
       0.11410779 0.033702765 0.09840592 0.005113879
000020 b8 67 0a 3e 11 07 07 3e a9 e0 82 3e 36 c6 ef 3c
       0.13516128 0.1318629 0.25562027 0.029269319
000030 25 62 1a 3e 7f bc 47 3d df 60 1d 3e 1e 3a bc 3d
       0.15076502 0.04876375 0.15368985 0.091907725
000040 02 dc 96 3d d7 a0 19 3d 56 00 7b 3d ca 87 57 3d
       0.07366182 0.037506904 0.061279617 0.052619733
000050 71 53 8d 3e bc 73 20 3d 2f 8a ae 3d 42 ec 1f 3d
       0.27602723 0.039172873 0.0852245 0.039043672
000060 24 21 96 3d 11 1d 02 3e a8 42 b9 3c 6c ba 3c 3d
       0.0733054 0.127064 0.022614792 0.046076223
000070 de 70 80 3d 62 dd a8 3d ae 4b ae 3d e0 a7 d2 3c
       0.06271528 0.082453504 0.085105285 0.025714815
000080 5d 00 3a 3d 87 73 6a 3c 53 dd da 3d f2 b5 eb 3d
       0.045410503 0.01430977 0.106867455 0.11509313
000090 cf 6c 8b 3d e4 67 06 3d c1 fe e5 3d 6f 4b ad 3e
       0.06807863 0.03281392 0.11230231 0.33846614
0000a0 13 53 57 3d bd e6 4d 3e 88 05 11 3c 03 9e 1f 3c
       0.05256946 0.20107551 0.008851416 0.009742263
0000b0 ab 2b b7 3c a5 a0 07 3e ce 77 8d 3d f6 9f 4b 3e
       0.02235969 0.13244875 0.069076166 0.19885239
0000c0 f0 95 76 3e 44 ed be 3c 2f f7 02 3d f6 1a 0a 3e
       0.24080634 0.023306496 0.031974014 0.13486847
0000d0 a1 a1 dc 3b 87 ba eb 3d 1e 25 04 3d 09 11 37 3d
       0.006733135 0.11510187 0.03226196 0.04469398
0000e0 fb c5 fe 3d 44 44 c4 3c 4f 12 49 3e 28 61 b6 3c
       0.124401055 0.023958333 0.1963589 0.022263125
0000f0 62 bf 27 3d f8 4c 7d 3c d6 3c 63 3c 5e 47 df 3c
       0.040954 0.015460245 0.013869485 0.02725571

batchnorm2.weight f4 [64]
000000 80 84 a4 3f 49 23 7b 3f 20 b2 5a 3f 60 2b 45 3f
       1.2852936 0.98100716 0.8542805 0.7701931
000010 a9 32 73 3f df 5c 7e 3f 4a 36 46 3f 70 32 86 3f
       0.94999176 0.9936046 0.7742659 1.0484142
000020 ed e4 99 3f 25 cd d3 3f 40 53 6f 3f 67 6b 92 3f
       1.2022988 1.654698 0.93486404 1.1439027
000030 2a f8 99 3f ad c8 99 3f bf 46 9f 3f 62 d0 81 3f
       1.2028859 1.2014366 1.2443465 1.0141718
000040 b1 df 3d 3f 29 aa 57 3f 14 2f 56 3f 27 ff 33 3f
       0.7416945 0.8424402 0.83665586 0.70311207
000050 1e 81 49 3f 42 6a 4a 3f ea d3 75 3f 94 b4 68 3f
       0.7871264 0.79068387 0.9602648 0.9090054
000060 2e 82 3c 3f a8 01 60 3f d4 fb 75 3f 7a 0c 65 3f
       0.7363614 0.8750253 0.96087384 0.8947216
000070 ad 9b 73 3f 57 51 41 3f fd c1 3f 3f eb 03 39 3f
       0.9515942 0.7551474 0.7490538 0.72271603
000080 7a 5b 4b 3f 2f c3 7f 3f 23 1b 45 3f 29 ea 59 3f
       0.7943646 0.999072 0.7699453 0.85122925
000090 b5 74 83 3f cf c8 8f 3f 8a f8 45 3f fe f4 0d 3f
       1.0269991 1.1233157 0.77332366 0.55451953
0000a0 fb 06 5c 3f ff 53 41 3f 18 be 8c 3f 46 f6 77 3f
       0.8594815 0.7551879 1.0995512 0.9686016
0000b0 9c 3e 2c 3f ed ef 07 3f c3 4f 55 3f 93 87 4a 3f
       0.67283034 0.5310047 0.8332483 0.7911312
0000c0 6e d6 4c 3f 4a 31 53 3f 15 b1 69 3f b1 85 91 3f
       0.80014694 0.82497084 0.9128583 1.1368924
0000d0 22 89 40 3f b2 b1 7f 3f 94 40 98 3f 3f 3a 87 3f
       0.7520925 0.99880517 1.1894708 1.056465
0000e0 fb c9 60 3f 8b 7b 40 3f ff 28 3f 3f ba 51 96 3f
       0.878082 0.7518851 0.7467193 1.1743691
0000f0 b2 da 45 3f 9f e7 40 3f 1e 72 8c 3f 47 64 5b 3f
       0.7728683 0.75353426 1.0972326 0.85699886

batchnorm2.bias f4 [64]
000000 b6 0a 3a be 12 06 f2 3d 61 d5 84 3d ff c7 0b 3e
       -0.18168148 0.11817564 0.06486011 0.13650511
000010 55 2b a1 bb 19 19 d8 bd 7c 85 41 3e a0 fd fd 3d
       -0.0049184957 -0.10551662 0.18898576 0.12401891
000020 c5 bd 14 bd ef 37 5a bd ea d1 9b bc 89 58 c5 bd
       -0.03631379 -0.053276 -0.019020993 -0.09636027
000030 ad ab ae bd d9 da bb 3d bc 98 03 be f0 ac 32 3e
       -0.08528838 0.09172601 -0.12851232 0.17448783
000040 03 fe a9 3e 2e 41 af be 6d 5c 36 be fb f2 2d 3e
       0.33201608 -0.34229416 -0.17808695 0.16987221
000050 d4 2b d1 3d 7d bf 80 3e f6 4e b7 3d 85 21 95 be
       0.10213438 0.25146094 0.089506075 -0.29127136
000060 db c8 eb 3d b1 5c 81 3d ac 45 34 be 83 18 2c 3d
       0.115129195 0.063165076 -0.17604703 0.042015564
000070 63 7b 9b be 9c c6 4b bd 36 27 73 be c4 71 34 be
       -0.30367574 -0.049749956 -0.23745427 -0.17621523
000080 2c 41 e0 3c ba 57 b4 bd 17 d9 4d 3c d4 c6 e8 bc
       0.027374826 -0.08805795 0.012563965 -0.028415121
000090 c3 41 b9 3d 32 d6 8e 3e df 07 ad be ac 53 31 3e
       0.09045746 0.27897793 -0.33795068 0.17317075
0000a0 83 0a 55 bd ae a1 84 3c 4d b8 81 3d 2a 78 cf 3d
       -0.052011978 0.016190376 0.06333981 0.10130341
0000b0 e7 d9 ce 3e 7b ba 96 be d8 b8 78 be 5e 7e 9e 3d
       0.4040062 -0.29439148 -0.24289262 0.077389464
0000c0 de 52 91 3e 5b 51 b8 3d 1f 1d 86 3e 99 53 c9 bd
       0.28383535 0.08999892 0.26194093 -0.09830398
0000d0 92 de 7f 3e e4 ad bb bc fd 00 27 bd ba 5c 24 be
       0.24987248 -0.022910066 -0.040772427 -0.16050997
0000e0 be 53 a7 3e 6a 4e 40 3e ad d5 ce 3d df f4 2b be
       0.32681078 0.18779913 0.10099349 -0.1679263
0000f0 ac 7c 10 3e 41 b0 b0 bd 89 d4 26 3e fa 25 87 be
       0.14110059 -0.08627368 0.16292013 -0.2639616

batchnorm2.running_mean f4 [64]
000000 be be 2a 3f 45 7b 99 3f 54 74 94 3f 3f dc 83 3f
       0.666973 1.1990744 1.1598 1.0301589
000010 09 fb 81 3f 21 4a 36 3f cb 8a d3 3d d6 ed 50 3f
       1.0154735 0.7120686 0.10329207 0.8161291
000020 31 dd 8f 3e a5 80 a5 3f 7f 85 b9 3f 94 92 fe 3e
       0.28098443 1.2929884 1.4493865 0.49721205
000030 a7 d7 e4 3e d9 7a 93 3f 99 b0 55 3e 36 8a a1 3f
       0.4469578 1.1521865 0.20868148 1.2620304
000040 c1 3b 41 3f 7e 99 b7 3e f1 df 0e 3f ce 6a 59 3f
       0.754818 0.35859293 0.5581046 0.84928596
000050 ac 6b 60 3f 84 3c b4 3f 79 c3 3e 3e 80 ff 88 3f
       0.87664294 1.4080968 0.18629254 1.0702972
000060 6d 30 74 3f 97 48 89 3e 0d 16 87 3e 81 d7 e9 3e
       0.9538639 0.26813194 0.2638401 0.4567223
000070 7d 01 7b 3e a3 e8 24 3f 88 1a 4f 3f 99 24 fb 3e
       0.24512286 0.64417475 0.8089986 0.4905136
000080 f0 9c 43 3f cd 8a 0c 3f 7c 5a 37 3f d5 7e 6d 3f
       0.7641134 0.54899293 0.71622443 0.92771655
000090 c2 98 ae 3f aa 98 4c 3f 85 c4 1c 3f 84 56 20 3f
       1.3640368 0.79920447 0.61237365 0.6263201
0000a0 7a b8 08 3f 56 c1 88 3f e0 dd d5 3e fb 98 01 3e
       0.5340649 1.0684001 0.4177084 0.12656014
0000b0 dc c9 21 3f a7 ef 24 3f e6 26 4d 3f 34 0a 95 3f
       0.6319864 0.6442818 0.8013748 1.1643739
0000c0 08 3f 78 3f 39 82 8b 3f 33 07 8e 3f 6a 18 02 3f
       0.9697118 1.0899116 1.1095947 0.508185
0000d0 79 df 9d 3f 5b 5c e1 3e 08 3b d1 3e 36 d2 79 3f
       1.2333823 0.44015774 0.4086535 0.9758638
0000e0 ca f8 a9 3e f9 45 61 3f d0 48 1f 3f 64 1f 3e 3f
       0.33197623 0.87997395 0.6222048 0.7426665
0000f0 67 63 9d 3f b4 78 84 3e 9b 16 92 3f 19 2d 0a 3f
       1.229596 0.2587334 1.1413149 0.53975064
